mnist-logistic.pth (torch, 32962 bytes, 2 tensors)

linear.weight f4 [10, 784]
0.010300923 0.014018431 0.028649185 -0.009272754 0.018106744 0.015717901 0.008334406 0.019447919
-0.029157512 -0.009483917 -0.033894446 -0.013442969 -0.008590287 0.027118575 0.033190403 -0.015418325
0.0001391843 -0.023423925 0.0069638975 0.016632486 0.024661303 0.03178649 0.0043194927 -0.0012934282
0.002140902 -0.012533648 0.011986606 -0.031894006 -0.009108553 0.0062819496 -0.028034547 0.0083607435
0.027527327 9.445717e-05 -0.018184429 0.013797591 0.0004954017 -0.016021907 -0.01890743 -0.025771704
-0.030483542 0.02661053 0.02228796 0.025259865 -0.012096165 0.021181053 0.020444652 0.010232341
-0.02217409 0.008197832 0.0013092885 0.020445658 0.028987076 -0.01621527 0.0042157993 -0.0073337946
-0.019115759 0.0024510846 0.0032969422 0.0055389153 0.030852528 -0.006648546 -0.0056954767 0.028966364
-0.032170698 -0.02207872 0.023922676 0.030968005 -0.019472992 -0.009319791 -0.03841618 -0.029798279
0.013573064 -0.006180102 0.0036396142 0.005448542 -0.0032217226 0.009121778 0.03387738 0.02254828
-0.007601274 0.018378366 -0.022256687 -0.01888718 -0.025017112 0.024199236 -0.031666316 -0.013924029
0.0106041115 -0.011176541 0.009780193 0.00023228694 0.005663974 -0.025014993 0.010319041 0.028640104
-0.031569608 0.017603155 0.008893597 -0.04258636 -0.02891697 -0.03136344 -0.023483591 -0.044603534
0.026897363 -0.0314565 0.027461072 0.018805733 0.022494737 0.029659368 -0.004070159 0.012271959
-0.03403446 -0.024221616 0.021343507 0.0027725426 0.0187906 -0.011402839 0.0042640474 -0.027241947
-0.027167214 0.007743924 -0.03765521 0.0068298806 -0.041485775 0.013644133 0.0417394 -0.01855276
-0.019133419 0.033700734 0.033492386 0.012685275 -0.016438965 0.014235182 -0.020573849 0.023355993
-0.0044318535 -0.0215042 0.019400341 0.011304151 -0.004534386 -0.020874374 -0.007536934 0.00979964
0.008280817 0.03017 -0.029584194 0.008375071 -0.020136941 0.014796588 0.008531293 -0.027890138
-0.014481717 -0.013619355 0.00019427562 0.035690576 0.020217894 0.037937988 0.06289119 -0.008948705
-0.0008584632 -0.0056758313 -0.009969446 -0.024323862 -0.015174316 -0.034202117 -0.03328119 -0.02539319
0.019503329 -0.02876338 -0.0032697099 -0.006407361 -0.03626298 -0.034772918 -0.03035379 -0.0025453123
0.0044191102 -0.024777485 -0.045910966 -0.026524343 0.035057295 0.038612906 0.06557788 0.014675088
0.07612954 0.06994858 0.07276594 0.059716288 -0.002816866 -0.006593926 0.022735996 -0.003286038
-0.001033818 0.0234794 0.034238037 0.0069445116 0.00804542 -0.005663578 0.024356764 -0.026046654
-0.013053719 -0.008894077 0.009602748 -0.0034523373 -0.010829746 -0.008247715 0.017715689 0.015154876
-0.0034081133 0.01589705 0.059851427 0.019068528 0.01714356 0.07247823 0.07618499 0.03441416
0.053167168 0.04387659 -0.022195125 -0.026926465 -0.014717362 -0.018563285 -0.025493676 -0.029857166
0.011726644 -0.007969376 0.0015558043 -0.004195102 -0.017224558 -0.039152697 -0.045620978 -0.017865477
-0.0408524 -0.0367429 -0.023801373 0.02576603 0.0024188757 0.0019031487 0.054139968 0.053857185
0.049207266 0.004295597 0.063949145 0.043262426 0.054946896 0.05236107 0.0401503 0.004827721
-0.031113524 -0.028337767 0.00639653 0.020200653 -0.012569497 0.027148904 0.012795206 -0.02419896
00000000: 34c5 283c 90ad 653c b2b1 ea3c c0ec 17bc
00000010: 9854 943c d4c2 803c 088d 083c 3e51 9f3c
00000020: bcdb eebc 6e62 1bbc e7d4 0abd e63f 5cbc
00000030: 46be 0cbc c627 de3c a9f2 073d 249d 7cbc
00000040: 00f2 1139 88e3 bfbc 6831 e43b da40 883c
00000050: 8006 ca3c 8d32 023d 888a 8d3b 4088 a9ba
00000060: 604e 0c3b ee59 4dbc 7863 443c 4aa3 02bd
00000070: 0a3c 15bc d0d8 cd3b b5a8 e5bc 80fb 083c
00000080: fd80 e13c 4f17 c638 83f7 94bc 4b0f 623c
00000090: d8dd 013a 6040 83bc c1e3 9abc 2e1f d3bc
000000a0: 9fb8 f9bc 54fe d93c 3d95 b63c c7ed ce3c
000000b0: fe2e 46bc e383 ad3c 8b7b a73c 8ca5 273c
000000c0: 70a6 b5bc 3350 063c 6f9c ab3a a77d a73c
000000d0: 4e76 ed3c e3d5 84bc b024 8a3b 5450 f0bb
000000e0: a798 9cbc 60a2 203b 8311 583b ca7f b53b
000000f0: 71be fc3c 0cdc d9bb 1fa1 babb de4a ed3c
00000100: 6cc5 03bd 6fde b4bc 7df9 c33c 9db0 fd3c
00000110: d385 9fbc 09b2 18bc 495a 1dbd 851b f4bc
00000120: 8e61 5e3c 7482 cabb 9886 6e3b af89 b23b
00000130: 8923 53bb 8373 153c 02c3 0a3d 2cb7 b83c
00000140: 1c14 f9bb 3a8e 963c a853 b6bc 4ab9 9abc
00000150: b0f0 ccbc 7a3d c63c 8ab4 01bd 9c21 64bc
00000160: debc 2d3c d01d 37bc 1a3d 203c 0d92 7339
00000170: dc98 b93b 3eec ccbc 3211 293c a79e ea3c
00000180: 224f 01bd 7e34 903c 73b6 113c 096f 2ebd
00000190: 48e3 ecbc f376 00bd a960 c0bc 32b2 36bd
000001a0: dc57 dc3c 88d8 00bd 0bf6 e03c 7b0e 9a3c
000001b0: e246 b83c 34f8 f23c f85e 85bb 5410 493c
000001c0: b867 0bbd 696c c6bc 94d8 ae3c 8cb3 353b
000001d0: bfee 993c f9d2 3abc 6cb9 8b3b 812a dfbc
000001e0: c78d debc bec0 fd3b 593c 1abd 31cd df3b
000001f0: fdec 29bd a48b 5f3c eff6 2a3d f5fb 97bc
00000200: b0bd 9cbc c809 0a3d 502f 093d e6d5 4f3c
00000210: 02ab 86bc ae3a 693c 7d8a a8bc 1155 bf3c
00000220: 1539 91bb 9329 b0bc 77ed 9e3c 0c35 393c
00000230: 3095 94bb bc00 abbc 63f8 f6bb ab8e 203c
00000240: 44ac 073c 1327 f73c 8d5a f2bc 9837 093c
00000250: 3af6 a4bc 636d 723c d6c6 0b3c dc79 e4bc
00000260: b944 6dbc b723 5fbc 77b6 4b39 4830 123d
00000270: ff9f a53c dd64 1b3d 19cd 803d 979d 12bc
00000280: 7d0a 61ba 53fc b9bb e356 23bc d642 c7bc
00000290: b29d 78bc 8517 0cbd db51 08bd 6105 d0bc
000002a0: 72c5 9f3c 2ea1 ebbc a148 56bb d7f4 d1bb
000002b0: 7e88 14bd 0c6e 0ebd 83a8 f8bc 41cf 26bb
000002c0: 2fce 903b 27fa cabc 230d 3cbd 9449 d9bc
000002d0: 3d98 0f3d 9128 1e3d b24d 863d c86f 703c
000002e0: cee9 9b3d 3341 8f3d 4f06 953d 1199 743d
000002f0: 2b9b 38bb dc11 d8bb d740 ba3c 925a 57bb
00000300: 2d81 87ba df57 c03c 2f3d 0c3d c98e e33b
00000310: f0d0 033c 8995 b9bb d687 c73c cb5f d5bc
00000320: 44df 55bc 76b8 11bc d854 1d3c 9c40 62bb
00000330: 3f6f 31bc 6d21 07bc 7e20 913c 284c 783c
00000340: a75a 5fbb 883a 823c c526 753d 9a35 9c3c
00000350: a770 8c3c 776f 943d e006 9c3d ddf5 0c3d
00000360: d1c5 593d f0b7 333d 8dd2 b5bc e494 dcbc
00000370: 1721 71bc 0812 98bc 1dd8 d0bc 0497 f4bc
00000380: 1c21 403c fc91 02bc 21ec cb3a 1177 89bb
00000390: 841a 8dbc 945e 20bd 10dd 3abd 9f5a 92bc
000003a0: d954 27bd b97f 16bd 19fb c2bc 4813 d33c
000003b0: 0086 1e3b 1373 f93a dfc1 5d3d 5a99 5c3d
000003c0: 8f8d 493d 14c2 8c3b c5f7 823d f133 313d
000003d0: ff0f 613d 9078 563d a474 243d dc31 9e3b
000003e0: cae1 febc 9b24 e8bc fc99 d13b d77b a53c
000003f0: 4bf0 4dbc 6167 de3c fca2 513c e63c c6bc

linear.bias f4 [10]
-0.054979276 0.12236114 0.004104754 -0.015423492 0.027939871 0.047351994 0.01947948 0.011105077
-0.081502266 -0.031868145
00000000: f331 61bd 7a98 fa3d 2c81 863b d0b2 7cbc
00000010: 28e2 e43c 2af4 413d 6e93 9f3c 12f2 353c
00000020: a9ea a6bd 2c88 02bd
